_________________________________________________________________
Layer (type)                 Output Shape              Param #   
=================================================================
conv2d_1 (Conv2D)            (None, 88, 58, 96)        11712     
_________________________________________________________________
activation_1 (Activation)    (None, 88, 58, 96)        0         
_________________________________________________________________
max_pooling2d_1 (MaxPooling2 (None, 44, 29, 96)        0         
_________________________________________________________________
conv2d_2 (Conv2D)            (None, 34, 19, 256)       2973952   
_________________________________________________________________
activation_2 (Activation)    (None, 34, 19, 256)       0         
_________________________________________________________________
max_pooling2d_2 (MaxPooling2 (None, 17, 9, 256)        0         
_________________________________________________________________
conv2d_3 (Conv2D)            (None, 15, 7, 384)        885120    
_________________________________________________________________
activation_3 (Activation)    (None, 15, 7, 384)        0         
_________________________________________________________________
conv2d_4 (Conv2D)            (None, 13, 5, 384)        1327488   
_________________________________________________________________
activation_4 (Activation)    (None, 13, 5, 384)        0         
_________________________________________________________________
conv2d_5 (Conv2D)            (None, 11, 3, 256)        884992    
_________________________________________________________________
activation_5 (Activation)    (None, 11, 3, 256)        0         
_________________________________________________________________
max_pooling2d_3 (MaxPooling2 (None, 5, 1, 256)         0         
_________________________________________________________________
flatten_1 (Flatten)          (None, 1280)              0         
_________________________________________________________________
dense_1 (Dense)              (None, 4096)              5246976   
_________________________________________________________________
activation_6 (Activation)    (None, 4096)              0         
_________________________________________________________________
dropout_1 (Dropout)          (None, 4096)              0         
_________________________________________________________________
dense_2 (Dense)              (None, 4096)              16781312  
_________________________________________________________________
activation_7 (Activation)    (None, 4096)              0         
_________________________________________________________________
dropout_2 (Dropout)          (None, 4096)              0         
_________________________________________________________________
dense_3 (Dense)              (None, 1000)              4097000   
_________________________________________________________________
activation_8 (Activation)    (None, 1000)              0         
_________________________________________________________________
dropout_3 (Dropout)          (None, 1000)              0         
_________________________________________________________________
dense_4 (Dense)              (None, 10)                10010     
_________________________________________________________________
activation_9 (Activation)    (None, 10)                0         
=================================================================
Total params: 32,218,562
Trainable params: 32,218,562
Non-trainable params: 0
_________________________________________________________________
Train on 7612 samples, validate on 1903 samples
Epoch 1/20

  32/7612 [..............................] - ETA: 27:05 - loss: 2.3011 - acc: 0.1250
  64/7612 [..............................] - ETA: 21:11 - loss: 6.9817 - acc: 0.1250
…
